Name Classifier/name_classifier.pt (torch, 603912 bytes, 16 tensors)

lstm.weight_ih_l0 f4 [320, 58]
00000000: fe76 9b3e 8857 6ebe 0213 1ebc 2f19 95bd
00000010: 71dd e13e ed71 503e 56f8 78be 5642 f1bd
00000020: 27d4 c73d c7f4 23be 1c1f d73d 8eec 24bd
00000030: 70e6 023e 8d31 9d3e d5f8 a8ba 99fc fe3d
00000040: 477f 8e3c 341b 4b3d 63cc 0abd fd47 8a3d
00000050: 3b1b a6bd 862d 423e 2b7e 7ebd 5a16 3abc
00000060: 440b 2bbe cc9b 403e c01e 593e bd45 f1bd
00000070: d310 5f3d 94ae 1b3d 3296 58bd 99df 0c3f
00000080: c4b7 1c3e 8e09 41bd 5cf4 9fbc d42e adbe
00000090: d1ab 19bd ed1f a83d 7a40 5dbc 90e5 f9bd
000000a0: d580 603a 7236 0fbd 6802 a73e a1f0 5fbe
000000b0: 514c aa3c a4e7 273e 3984 783e 1dcf e2bd
000000c0: 7c2c 473e 4ed4 99bc 4188 45be cc20 83be
000000d0: d5c2 2cbe 5721 ddbd c53c 0e3e e083 693d
000000e0: 9e36 5f3e 089b 55be cad8 8bbe b077 2ebd
000000f0: ded9 2abe 0808 593e d4a6 503e 9448 a23c
00000100: 4cb7 8cbe 1db3 233e a48d dd3e 6ce8 b73d
00000110: 2169 a5bd ec3a 27be 1923 3f3d 6ee1 833d
00000120: a0cc bb3d 656c a0be df92 fb3d 4f3d 153e
00000130: 3d31 cf3d 67dd eb3d 8588 a43e 81ed 60be
00000140: 7ccf 823d a2f0 2c3e 4634 21be 5d6e 233e
00000150: 63b3 df3d 137b 20be 85d5 9a3c 2709 a83c
00000160: 8f45 c6bd dbbe 25bd 4e0e a8bd 8ce6 0dbc
00000170: 17b0 5b3e 36ff cfbd c504 fabd f85e d93c
00000180: d6b5 0e3d 5737 173e aa31 2cbd 9b40 f7bb
00000190: 2165 023e ef92 583e e4e4 c83d 6fc1 ab3d
000001a0: 5499 663e ba6f d83d d322 adbd ce23 3a3e
000001b0: fee3 77be 45d7 1b3e f7ba e0bd e32c 873d
000001c0: 43c5 1c3e 376e 87be 5dc6 38be 65df 8abd
000001d0: a047 88bd 40fb c83e 26b0 7a3e 7699 1fbe
000001e0: 8b2d 4bbe b043 8b3e ce16 08be f0dc 893d
000001f0: 6517 54be c6f0 1a3e 1f44 ef3d 851d 163e
00000200: 7e6f 09be f11f 963e feb7 67be dc01 883d
00000210: 7f90 f3bc 6357 42bd a0fc 1ebd 6716 713d
00000220: 1542 9ebc 39d1 3abd 8ade 943d 87d5 18be
00000230: df83 063e 49f6 cabc f3b1 e8bb 4bb2 9abd
00000240: 1c5d d2be c293 e43d 6439 3c3e 3b46 01be
00000250: edb3 69bd 8710 25be 79af ca3d 9c67 65be
00000260: 1030 863e ea0c a23e 5625 193e 83ce 2bbe
00000270: 1ea9 dd3e 9393 e53d ee4e 2bbe 4f49 94be
00000280: 2baf 0e3e 45cf 343e afa3 0cbe ac07 a4be
00000290: 130d 2cbc d8d3 b9bd 71e5 1fbc 8d0a b4bd
000002a0: 3440 92be 937e b0be 59e1 223e 3893 3bbe
000002b0: 9a19 903d 863c acbd 3956 9b3a 217b 77be
000002c0: a138 6dbd a834 f6bd 58ba fcbd eef2 cbbe
000002d0: 89b2 c8be 0508 823d 3660 b0bc 518d 503d
000002e0: 624b c13b 5ccc 853d eff0 873d 1a5c e4bd
000002f0: 1dcf a63d 83a5 bfbc cdf6 d73d a2b7 0e3e
00000300: 30d8 4f3a 8d37 2b3e 0609 c9bd 4a7b aebd
00000310: 6ae1 e8bc baba 16bd c801 533c 9290 823d
00000320: da87 5e3e 0d88 9bbe 320b 813e 03d0 e2be
00000330: 73eb 2abe bd31 ab3d c281 5abd 82bf 30be
00000340: 7ed2 35bd f34f 76bd 864d 82be 9cc7 80bc
00000350: 0bfe 933c 41d5 8dbd ac5f c63d 5e13 a43d
00000360: 57ef 61be 8fdf 5cbd 4d96 073e bdab f6bd
00000370: be5e a03e e109 02be b3d1 c2bd f825 b1bd
00000380: b1fd 213d 495f c63c 8592 883e c419 eabd
00000390: 8cd1 563d 3087 ad3c d3ff 8f3e b658 b33d
000003a0: 3834 373d cefa 993d ac3f 8fbe 472c 203d
000003b0: 8b96 6f3e 332b 80be 694f 5fbd 89c2 8fbe
000003c0: 9e11 863e 68e3 7cbd 4cab 083c e52b 993e
000003d0: 99a4 1b3e bf29 c23d 1059 27bc c3ec 71bc
000003e0: 6a9b 09be d90f 33be e174 fdbd cf1e f63d
000003f0: 88b6 91be 06e3 a23e 49bf 1bbe f3de da3b
0.3036422 -0.23275578 -0.0096480865 -0.07280194 0.4411426 0.20355959 -0.24313483 -0.11780231
0.09757262 -0.16011344 0.105039805 -0.04026466 0.12783217 0.30701867 -0.001289154 0.12450523
0.017394675 0.04958649 -0.033886325 0.06752012 -0.081106625 0.18962678 -0.062132042 -0.011357868
-0.16703516 0.18809432 0.21203136 -0.1178088 0.054459404 0.038008288 -0.052877612 0.5502868
0.15304476 -0.047128253 -0.0195257 -0.3382479 -0.037517373 0.08209214 -0.013504142 -0.12201989
0.00085641193 -0.034964032 0.32619023 -0.21869136 0.020788344 0.16396958 0.24269189 -0.1107466
0.19450563 -0.018777993 -0.19290258 -0.2561096 -0.16871198 -0.10797375 0.13890369 0.05701053
0.21798179 -0.20859921 -0.27313834 -0.04259461 -0.16684672 0.2119447 0.2037614 0.019809999
-0.27483594 0.15986295 0.43272126 0.08979878 -0.080766924 -0.1633107 0.04666433 0.06439482
0.091698885 -0.31332698 0.12283873 0.14574169 0.10116813 0.115168385 0.32135406 -0.219656
0.06387231 0.16888669 -0.15742597 0.15960069 0.10922887 -0.15671949 0.018900642 0.020512177
-0.09681236 -0.040465217 -0.082058534 -0.008660924 0.21453892 -0.101560995 -0.12207941 0.026534542
0.03484138 0.14767204 -0.04203955 -0.0075455434 0.1273389 0.211498 0.098092824 0.08386504
0.22519428 0.10568185 -0.08453908 0.18177721 -0.24208066 0.15218838 -0.10973161 0.06600358
0.15309624 -0.26451275 -0.1804442 -0.067808904 -0.066542864 0.3925419 0.24481258 -0.15585884
-0.19841592 0.2720008 -0.1328995 0.067315936 -0.2071205 0.1513091 0.11682915 0.14659698
-0.13421437 0.29321244 -0.22628781 0.0664098 -0.029731987 -0.04744662 -0.03881514 0.058859255
-0.01931862 -0.045609687 0.072690085 -0.14925204 0.13136242 -0.024775641 -0.0071012913 -0.07553538
-0.41086662 0.11160995 0.18381268 -0.12624447 -0.057056356 -0.16119586 0.0989675 -0.22402805
0.26208544 0.31650478 0.14955649 -0.16777997 0.4329309 0.11209788 -0.16729328 -0.2896218
0.13934009 0.17657192 -0.13734315 -0.32037103 -0.010501164 -0.09073609 -0.009759293 -0.08791075
-0.28564608 -0.34471568 0.15906276 -0.18317878 0.07036133 -0.084099814 0.0011851258 -0.24168064
-0.057915334 -0.12021762 -0.1234023 -0.39833778 -0.39198712 0.06349186 -0.021530252 0.05091602
0.005898879 0.06533119 0.06637751 -0.111503795 0.081449725 -0.023394352 0.105451204 0.13937238
0.0007928638 0.1672041 -0.09816174 -0.08519609 -0.028427798 -0.03679917 0.012878843 0.06375231
0.21731511 -0.30377236 0.25203854 -0.44299325 -0.16691379 0.08359096 -0.053346403 -0.17260554
-0.044390194 -0.06013484 -0.2544977 -0.015720181 0.018065473 -0.069254406 0.09686217 0.080115065
-0.22063957 -0.05392414 0.13240929 -0.12044475 0.31322283 -0.12699081 -0.09512653 -0.0864982
0.03954858 0.024215357 0.26674286 -0.11430696 0.052445933 0.021182626 0.28124866 0.08757155
0.044727534 0.0751854 -0.27978265 0.039104726 0.23397271 -0.25032958 -0.05451909 -0.28078106
0.26185316 -0.06174031 0.008341622 0.299163 0.15199508 0.09480619 -0.010214105 -0.014765921
-0.13438192 -0.17486514 -0.123758085 0.12017595 -0.28459573 0.3181383 -0.15209688 0.0066794096

lstm.weight_hh_l0 f4 [320, 80]
00000000: 0625 68be ab82 1fbe f51c 80bc 53d0 2c3e
00000010: ec65 58be ea15 dcbd 8dc3 a63d fa28 1d3e
00000020: 0fa7 c43d bbea 46be 4135 7abd 3645 0a3e
00000030: 7c00 2f3e e883 863e 4724 893c eb8b 923d
00000040: 7c2e bcbb 4cc6 213e 35b7 bfbe 501f 163e
00000050: a615 1ebe 162e 303d 8be6 ee3d 13f6 d5bd
00000060: cc4f 9cbc 54cd 9739 672a 04bd a354 4a3d
00000070: 980e 923e 771f 4b3e 6db7 16be 51b5 fc3d
00000080: 2ce2 8dbd 09a4 88bd 516b 793e f72b e4bd
00000090: e976 a13d 1ad8 19be f63b eebc 66ee 21be
000000a0: 30c3 233e 10e6 aa3e 6ea9 673d cd4c f03d
000000b0: 2907 32be 661f 97bb 1888 f73d 1e8c fd3b
000000c0: 15c3 74be 9e95 9d3e ac3a 89bc b114 d3bc
000000d0: 3d9e ac3d 4011 a6bc ade6 8f3d 9b60 f43d
000000e0: 0c4b 87be 9cf3 07be a518 2e3d d9dd 903d
000000f0: 95e9 e83c 7f55 00be f397 2e3e 3350 38be
00000100: beb3 373e a3e4 b83d ebd0 c2be d28a cabd
00000110: 3daa 39be 807b 2a3b d407 24be 0b83 bebc
00000120: 3397 28be 2f92 9e3d 5eb1 863c f6cb 0a3e
00000130: 1fa9 a43e bd0a bd3d 2e77 09be b523 19be
00000140: ff2d 1dbe 9826 f3bd dcbd 093e f0ac 4b3d
00000150: cab1 99bd 3f2f 4e3b 9593 583e 405b d4bd
00000160: 0234 abbc b8c8 2fbc 6874 cabe d596 96bd
00000170: 33cf b4bd 07f9 ed3d fcfd 96bd b7af 003e
00000180: b58c 283e b7fa b9bd c031 cd3d d53a 7d3e
00000190: 67b9 c93e 9cda 863d 1ead 553e 6c30 7ebd
000001a0: 04a9 823e bd15 51be 0db5 e7bd 7d22 0a3e
000001b0: 8988 2a3e ffcf 5ebe 83dd 5fbc 5523 3bbe
000001c0: 7f05 ce3e c12d 8a3e 2304 a13d 2451 e9bc
000001d0: c892 43bd 4e26 ea3d 3597 ef3d a236 42be
000001e0: 8f41 103e f7f2 a83d c817 22bd 8f26 34be
000001f0: 55a9 c13d ef08 b93c e770 9e3b 30de 453e
00000200: fd6d 0c3d 0c2f 873c 630b 41be 4fc0 a1be
00000210: 4d78 083d 533e 833c 6e4d be3d 125b 133e
00000220: d31d 60bd 307e 503e 3656 11be d7e6 923a
00000230: 817a 043e 995b 14bd 48cc 35bd a967 de3d
00000240: caff 21be 9f60 0b3e c9c3 68bd 9f36 42bd
00000250: 1f2d af3e 9e74 3fbe 3627 5cbe 1fa3 aabd
00000260: 73d0 f13d 5a89 64bc f5fd 15bb c3fb 0bbc
00000270: ce26 99bd 3393 1cbe 1991 6f3e 1357 97bc
00000280: ea18 9d3d 6d66 9b3d 3b58 8fbd a374 1b3b
00000290: db62 49be 2203 7bbd 7974 563e 5912 b03d
000002a0: c6bd 213e b336 cebc 1049 723c 2915 4bbd
000002b0: 1123 b6bc d8f0 8abd 2f73 edbd 2e53 99bc
000002c0: 813e dabd aca2 133e aaff 30be 08d1 663d
000002d0: 1e81 2d3d db05 943d 9fab 253d cc66 b23d
000002e0: 8527 bd3d d566 0cbe 92c3 02be 2362 483e
000002f0: c1a4 063e d585 8bbd 064b 783e 8fae 10bd
00000300: 3731 00be 395c 81bd 249c 0a3e 3726 fc3d
00000310: 4fc5 483e fd44 75be 011b 123e 36b5 73be
00000320: 98f0 e0bd 5fe7 05be ca00 0b3e 53a3 b1bd
00000330: 8e35 fc3d 4bff cb3d cd50 44be 1e72 39be
00000340: 4a4c efbc df04 fdbe 326c 85bc c0c6 7ebd
00000350: f0e1 c13e 388c bbbd 89c8 533e 6988 793e
00000360: d1de 37bd e5b3 cfbd 6d3b b73d dbf9 b2be
00000370: c86c e63d 2a06 3dbe 2470 9dbe e667 babd
00000380: 9de7 54bd e410 ab3d 70d4 15be d7b7 033e
00000390: d16f b8bb 3c44 473c 116d 45be f627 803e
000003a0: e64a d63d ea9c 99be da84 3b3e e738 4bbe
000003b0: d3e0 13be 7862 31be 1d70 803d 49a2 263e
000003c0: 1840 08be a8d6 763e 8be8 893d 3139 6abd
000003d0: e97c 323d 6526 88bd 6978 9dbe 0c48 c73d
000003e0: 687b 8b3e ecdf f8bc 533b e4bd 23ac d83d
000003f0: e3d8 b93c 9899 013e edd2 e93b 03a7 81bd
-0.22670373 -0.1557719 -0.015638808 0.16876344 -0.2113263 -0.10746367 0.08142767 0.15347663
0.096021764 -0.1942548 -0.061085943 0.13502964 0.17090029 0.2627251 0.016740931 0.071555935
-0.005742846 0.157983 -0.37444463 0.14660382 -0.15437946 0.0430127 0.11665066 -0.104473256
-0.019081019 0.00028953946 -0.032267 0.049397122 0.2852676 0.19836222 -0.14718409 0.12339271
-0.069279045 -0.06671912 0.24357344 -0.11141198 0.078840084 -0.15023842 -0.029081326 -0.15813598
0.15992427 0.3337865 0.056558065 0.117333986 -0.17385544 -0.0046118973 0.12086505 0.0077376505
-0.23902543 0.3077821 -0.01675161 -0.025766702 0.08428619 -0.020271897 0.0702642 0.119324885
-0.26424444 -0.13276523 0.04250397 0.07073564 0.028431693 -0.12532614 0.17050152 -0.17999344
0.1793966 0.09027984 -0.38050017 -0.09889759 -0.18131347 0.0026013553 -0.16018611 -0.023255846
-0.16463928 0.07742726 0.016441997 0.13554367 0.3216028 0.09230564 -0.1342437 -0.14955027
-0.15349577 -0.118725955 0.13451332 0.049725473 -0.07504614 0.0031461266 0.21150048 -0.10368967
-0.020898823 -0.010729007 -0.39541936 -0.07352988 -0.088285826 0.11619764 -0.073726624 0.1256703
0.16459925 -0.09081023 0.10019255 0.24729474 0.39399263 0.06584665 0.2086682 -0.062057897
0.25519574 -0.20418449 -0.113138296 0.13489719 0.16653647 -0.21759032 -0.013663652 -0.18275197
0.40238568 0.26988032 0.07862117 -0.028481074 -0.047747403 0.11433087 0.11698762 -0.18966153
0.14087509 0.08249467 -0.03957346 -0.17592834 0.09456126 0.022587268 0.0048352364 0.19323039
0.03428458 0.016501926 -0.18852 -0.31592032 0.033317853 0.01602093 0.09292112 0.1439021
-0.054715943 0.20360637 -0.14193043 0.0011207712 0.12937357 -0.036220167 -0.04438427 0.10859615
-0.15820232 0.13611077 -0.05682734 -0.047415372 0.34214112 -0.1869683 -0.21499333 -0.08331894
0.11807337 -0.013948763 -0.0022886966 -0.008543911 -0.074781045 -0.15290527 0.23395194 -0.018474137
0.076707676 0.075878955 -0.069992505 0.0023720644 -0.19666617 -0.061282285 0.20942868 0.085972495
0.15795049 -0.025172567 0.014787927 -0.049580727 -0.022233518 -0.067842185 -0.11594235 -0.018716421
-0.10656453 0.14417523 -0.17285028 0.05635169 0.042359464 0.07227679 0.040446874 0.08711013
0.092360534 -0.13711102 -0.12769917 0.19568686 0.13148786 -0.06812636 0.24247369 -0.035322722
-0.12518774 -0.06316418 0.13536125 0.123119764 0.19606517 -0.23952098 0.14268114 -0.23799595
-0.109833896 -0.13076542 0.1357452 -0.0867373 0.12314902 0.09960803 -0.19171448 -0.18109939
-0.029211182 -0.4941778 -0.016286943 -0.06220126 0.3786769 -0.09157604 0.20681967 0.24368443
-0.04489023 -0.10141734 0.089468814 -0.3495625 0.11251217 -0.18459383 -0.3074962 -0.09101848
-0.051978696 0.08352831 -0.1463182 0.12863098 -0.005628564 0.012162264 -0.19279887 0.25030488
0.104635045 -0.30002528 0.18312398 -0.19845925 -0.14441232 -0.17322719 0.06271384 0.16272844
-0.133057 0.24105322 0.06733807 -0.05718345 0.043576155 -0.06647948 -0.30755928 0.09730539
0.2724259 -0.030380212 -0.11144128 0.105797075 0.022686427 0.12656248 0.00713574 -0.06330683

lstm.bias_ih_l0 f4 [320]
00000000: eb62 40bd 0057 8c3d c013 233e aef6 313e
00000010: 3bbe abbe c861 74be d14f 033c a5e9 163a
00000020: 2c2f 233f cd20 703e fe39 2a3e 3e90 15be
00000030: 9737 afbe 325a 023f b8da 40be 8560 bd3c
00000040: 2789 923e bfe8 663e db89 40be 418d 3cbe
00000050: ba96 07be 30f8 a53c f203 21bd 0fac 8b3d
00000060: 8717 eabd ec85 483c c16e dbbb 0745 eb3d
00000070: 76a4 0bbc ef0a b23d 36aa acbe 1a66 823d
00000080: 6810 8e3d 5623 2a3e 2683 983e dd31 f73c
00000090: 497b e83d c78b 9dbd c0a4 973d 8fb1 3dbd
000000a0: 335b f3bd f662 013e 71bb 31bd b104 73bd
000000b0: 2f64 8abd bbc9 b33d cf9c c6bc 5af4 433e
000000c0: 3685 7dbd 2612 673e d1f7 d2bd e454 d9bd
000000d0: 5424 893d 4acd e63d 5491 613d 2c89 79be
000000e0: e0ae 85bd bde2 8b3d 443f 773e 31ea b43c
000000f0: 5b9e f9bc 9a8f 89bd d985 f4bc 37c1 b4bc
00000100: d3f5 2c3e 6bbd 4ebb 6a5d 32bd f186 6b3d
00000110: 40d9 01be 7edb 033e 0aa8 6fbd 2498 a33d
00000120: 8d0c 273a b169 39bd 30de e3be 2e4f d93e
00000130: 6e53 3ebe 06cb 933d 7b45 c13d 8657 2ebc
00000140: 1df7 163e 0e21 1b3d 26aa 90bd 1f30 d9bc
00000150: 2058 7a3c e345 a2bd 7456 f4bd 2c0a 8b3c
00000160: 3ee0 933d 2486 38be 8ccc 433e b9f0 39be
00000170: a3b3 d63c 65eb 143c ae5c f13d 9ea7 e3bd
00000180: a2a8 dabc a652 313e 60ce 1b3e 421c 34be
00000190: 103b 283e 3b34 7a3d 8676 6a3e c76f 083e
000001a0: 8fba 3fbe c862 f53d 73f1 6c3e 0e2d 7f3d
000001b0: 8957 253f a3a3 693d fbce 1dbe e6f0 873e
000001c0: eb5d c93c 42a9 94bd c4e5 02be ff3e ab3d
000001d0: 819b 67bd bb42 683b a463 aebe 2921 23bd
000001e0: 22f0 ad3d 4fab 343d 374d 283e 5746 a6bd
000001f0: 6f62 b43d cd2e 23be 9169 4bbe d89f 04be
00000200: 5489 5fbd d0f3 9cbe 193f 4bbe 9a0e 003e
00000210: fb9a d93d 3c5e 53be 0bda 2c3d f714 723d
00000220: 00a6 5abe 9db3 f43c 16e4 ccbe 37f3 5b3b
00000230: ec26 24be 5517 333e 4f02 3cbe 737e 1f3e
00000240: 9c22 17bd 0c22 14be cf20 193e 139e 89be
00000250: e898 0e3e c6f1 26bc 1993 6abe a473 193e
00000260: d869 4bbe c69d 77bd 8d79 1dbb e1fe 4b3d
00000270: 4078 e83c 3035 073e db51 bdbd 2c9e ff3c
00000280: 97b5 71bc 7c26 8a3c eca5 343b 0064 663b
00000290: 4edd 0abe cb75 1b3c 48e5 093a 0b2b 923d
000002a0: 5be4 ddbc 3a69 af3b adce 1cbe 5055 813e
000002b0: 080c e63d bd2d 7d3e f206 223d 8919 9a3d
000002c0: dcfc c1be 439f f8bd 728e 843e af29 1f3d
000002d0: adcb 253e 9313 4c3d 753d b93e e1b8 e33d
000002e0: 437e 8cbc 01f0 8e3d 5927 87bc 60bf 803d
000002f0: f2f1 8c3d 2a01 aa3d ac95 713c 6e6b b1be
00000300: 63c9 a0bd 9f2a 8dbd 68c7 9bbe df4d 58be
00000310: 299d 9b3e 2617 65be 5d59 9f3e 86c3 e2be
00000320: 1059 e6bd 22a5 d5bc a97f 1b3d e2b4 d9bc
00000330: e4ad 3f3e 0663 383d 8e24 18be 5459 7e3e
00000340: 1546 393d 1f8b 24be 21e4 7ebd 9682 8dbd
00000350: c879 4f3d 7075 37be 0712 1c3e aeb6 a03c
00000360: 6605 9e3d a66e d3bd 3a18 0a3e 2c39 533d
00000370: 28df e23e 7cf7 0fbe 404a e83d 54a6 523e
00000380: 2e52 043e d89d 5cbe 881c 4dbe 8cdb 49bd
00000390: c48e 75ba 9f12 33be 77a7 0c3e 2c8c 89bc
000003a0: 80ae 9dbc 4214 9abd 3a04 e5bd 3319 903e
000003b0: 4baf 273e c52f 373e 4444 553e e216 6bbd
000003c0: 7e23 02bd e9ff 003e 250b a4bd 5a37 cbbd
000003d0: 30f9 e6bd 54de 853e d664 adbd 31dd babd
000003e0: 1bcb 2dbe d4eb 103d 490c 093e 559f 0cbe
000003f0: d155 ffbc f14c 91be d4c5 8cbc 3eaa a6bd
-0.046969336 0.068525314 0.15925503 0.17379257 -0.33543572 -0.23865426 0.008014635 0.00057568616
0.63743854 0.23450013 0.16623685 -0.14605805 -0.342221 0.5091888 -0.18833435 0.023117313
0.28620264 0.22549723 -0.18802588 -0.18413259 -0.13241091 0.020259947 -0.039310403 0.06819927
-0.11430269 0.012238961 -0.0066965525 0.11487775 -0.008523097 0.08693492 -0.3372361 0.063671306
0.06936723 0.16615042 0.29787558 0.030175144 0.1135164 -0.07692676 0.074044704 -0.04631191
-0.11882629 0.12635407 -0.04339165 -0.059330646 -0.0675739 0.087787114 -0.024244694 0.19136181
-0.061894618 0.22565517 -0.103011735 -0.10611895 0.06696382 0.112696245 0.055070236 -0.24368733
-0.065274954 0.06830356 0.24145228 0.022084327 -0.030471018 -0.06716843 -0.02984898 -0.022064788
0.1689065 -0.0031546007 -0.043546118 0.057501737 -0.1268053 0.12876698 -0.058509864 0.07988003
0.00063724146 -0.04526681 -0.44505453 0.42443222 -0.18586513 0.07216458 0.094370805 -0.010640984
0.14742704 0.03787332 -0.07063703 -0.026512204 0.0152798 -0.07923486 -0.11930552 0.016972624
0.07220505 -0.1801992 0.19120997 -0.18158235 0.026208704 0.009089326 0.11785255 -0.11115955
-0.026691739 0.17316684 0.15215445 -0.17588905 0.1642878 0.061084967 0.22896776 0.1332389
-0.1872351 0.11981732 0.2313898 0.062298827 0.64586693 0.05704082 -0.15410988 0.26550978
0.024580916 -0.07258846 -0.12782961 0.08361625 -0.056544784 0.0035440165 -0.34060395 -0.039826546
0.08493067 0.044108685 0.16435705 -0.08118885 0.08807837 -0.15935822 -0.19864489 -0.129516
-0.054574326 -0.30654764 -0.19848289 0.1250557 0.10625263 -0.20641416 0.04220013 0.059102025
-0.21352386 0.029870803 -0.40017766 0.0033561715 -0.16030473 0.17489369 -0.18360256 0.1557558
-0.03689824 -0.14466113 0.14953922 -0.26878414 0.13925517 -0.010189479 -0.22907676 0.1498552
-0.19864595 -0.0604532 -0.0024028749 0.04980362 0.028377652 0.13203883 -0.09244128 0.031203352
-0.014752767 0.016864054 0.0027564717 0.003515482 -0.13560984 0.009488533 0.0005260301 0.07137116
-0.027086427 0.00535312 -0.15313216 0.252604 0.112327635 0.24724479 0.039557405 0.07524402
-0.3788823 -0.12139752 0.25889927 0.038858112 0.16190977 0.049823355 0.361797 0.11119247
-0.01715005 0.06979371 -0.016498255 0.06286502 0.06882085 0.08301003 0.014745157 -0.34652275
-0.078509115 -0.06892895 -0.30425572 -0.21123455 0.3039334 -0.22372112 0.31122866 -0.44289798
-0.11247456 -0.026079718 0.037963543 -0.02657551 0.18718678 0.04501631 -0.14857695 0.24838763
0.04523285 -0.16068695 -0.06222928 -0.06909673 0.05065325 -0.17915893 0.15241252 0.019618358
0.077158734 -0.10323839 0.13485804 0.051568195 0.4431088 -0.14059252 0.11342287 0.20571262
0.12921974 -0.21544588 -0.20030415 -0.04928164 -0.0009367282 -0.17487572 0.13735758 -0.016790472
-0.019248247 -0.07523395 -0.11182447 0.28144225 0.16375463 0.17889316 0.20826823 -0.05739487
-0.03177213 0.12597622 -0.08009938 -0.09922667 -0.112779975 0.26146185 -0.084664986 -0.0912422
-0.1697201 0.035381153 0.13383593 -0.13732655 -0.03116885 -0.28379014 -0.017184176 -0.0813794

lstm.bias_hh_l0 f4 [320]
00000000: 71e3 0f3b ce28 453e ff19 bd3d fc79 c8bd
00000010: 9afe 2a3c 5eb1 56be 46af c9bd 9d65 813d
00000020: 012e 80bd 972b 023e c15d 7fbe 86d6 a13e
00000030: 31ad 1a3e ba14 493e 215b 443c 7a82 a7bd
00000040: d1c2 343e 7ca1 d4bc 4dca 843d 5306 233d
00000050: 29cd 70be b442 203d 1de6 053e fbde 873b
00000060: 703f 46bd 4f9f 26be 266f 90be 617a 5c3d
00000070: 4377 4ebe 105a 84be f689 8b3e 81f4 693d
00000080: 6b4a b6bd 3aba 0a3c a24b 6a3e 7d38 01be
00000090: bd66 9e3e a91a 813e 98d2 0e3d 44a7 6fbe
000000a0: d724 1bbe 37dd db3e 9006 993d afcc e93e
000000b0: 38b8 283d 26f1 86bd ebb7 f03c 0592 e7bd
000000c0: 3c10 1f3e 057f 06bd 7e51 a73d c949 e73d
000000d0: 2fe4 a7bd 1e30 03bd 0c9c 553e 186d 1d3e
000000e0: 83e7 73be d968 c83b 5f2f b93d 18b2 693e
000000f0: 40a1 5bbe 2efa 313e 271f 8fbd 1aae bebd
00000100: 7d08 69bd 6557 9e3d 5f8b 8f3e de53 e43d
00000110: 38fe 17be b317 d63e 6a06 72be dcbf b7bd
00000120: d32d 3fbe 14e0 61be 0e72 1fbe 5210 f83d
00000130: 1c61 493e f8cf 223d 6036 e1bd ebc4 89be
00000140: 2664 613e d01d 183d 9793 f33d 9628 063e
00000150: 33aa 203e 525f 3d3e 5ec4 30be 85ff 9c3e
00000160: 0b26 a13d 8085 a6bd 923b 05be ed43 463d
00000170: fa08 553d 4979 17be a38e 033c 910a 313d
00000180: 5263 103d 522a 9f3e ab30 fbbd d0e1 7abc
00000190: e370 8cbe 5e12 13be 1216 b4bc 7144 f53d
000001a0: df83 de3d 1946 0f3e a3bb 803d a230 36bd
000001b0: 3e34 3fbe 08a6 11be 9741 063d 9807 2cbe
000001c0: 730f 9d3e ed54 3abe c9bc 5f3e c6ea e8bd
000001d0: d547 84bd 0667 b53d 24f9 f63d cdb3 223e
000001e0: 0e41 a2bd 988f 4a3e 5c86 9a3e eaed 26be
000001f0: d216 47be 5b13 70be cf92 d4bb a198 5d3d
00000200: b219 b33e 2654 933e dd24 6a3e 0f2c b33e
00000210: 372e 873e b234 28bc 0634 22be 9eba 1abe
00000220: 45d0 cbbd 80a6 8dbd fd46 4bbd 99c7 abbd
00000230: d314 1a3b e13f d0be b7a8 aebc 56ad 463d
00000240: fe45 913e c0da 21be 2d9a 21bd 8f85 ca3e
00000250: 1c83 0d3e 3157 af3d 461d d2bd 2572 a53d
00000260: bd69 7d3e 5e94 4e3e 9410 9e3c 46a6 603e
00000270: 66de b73d 838a b5bd b013 343e 916c 00be
00000280: 32e1 6dbe dbf7 25bc 7407 31bd 637f 4abc
00000290: 333f 8dbe a2ab 11bd 98c9 453e 29d3 333e
000002a0: e564 01be 3e7a 0cbe c9a9 03be d4b8 c83d
000002b0: 742b 7c3e c318 8b3c df5d 003e ea73 a9bc
000002c0: b026 85be aaa5 053d 4c3e 5c3e c778 92bd
000002d0: 4a1f 5ebc 89d9 2dbe 6d45 1a3e 197d 623e
000002e0: 9f5f 403d 5764 96bd 145d 343e f546 da3c
000002f0: 3866 733e bcab 74be 937a a63d a76d 26be
00000300: ff45 853e b57c 6abe f7db 0e3e 4783 d93d
00000310: 83f6 8a3d 06c9 24be f758 d23d f146 51be
00000320: 7a37 c13d caaa da3d a2c0 93bd 44e5 47be
00000330: f90b 26be 5a18 513d 900a 8ebe 043b d8bc
00000340: 012a 193e 9ad5 623e 1f54 24be a310 2f3e
00000350: 5436 833e 5967 4ebe 3dc8 433d c3f2 b4be
00000360: 4573 da3d a638 ba3d b5bd 193d aab2 d0bd
00000370: e330 6f3c 6b1e b2bc 3178 f8bd 5aa5 263e
00000380: 91dc 1c3e ce5a 14be 7ffb 733b b4fe 08bd
00000390: ce23 8b3b f439 8cbd e3eb b9bb 3f09 eabd
000003a0: 6e15 2f3e 5803 b4be 41bd e0bd 7a77 14be
000003b0: fec0 9b3c fc54 04be 0ec2 ba3c 8f67 12be
000003c0: cedb efbd 3560 f33c 4d51 9f3e 41da b73d
000003d0: e402 c53d 3593 17be f55c 5f3e 7eba 02be
000003e0: 788c 74bb ca1e 873e 07a3 35bc ed09 8e3e
000003f0: 6271 7ebd ae81 f63b 7fdd 453e d5d5 a0bd
0.0021955634 0.19253847 0.09233474 -0.09788892 0.010436678 -0.20966098 -0.09847884 0.06318209
-0.062587745 0.1271194 -0.24938108 0.3160898 0.1510513 0.19636813 0.011984617 -0.08179183
0.17652442 -0.025955908 0.06483898 0.039800953 -0.23515762 0.039126113 0.13076063 0.0041464544
-0.048400342 -0.16271709 -0.282098 0.053827647 -0.20162682 -0.25849962 0.27253693 0.057117943
-0.08900913 0.008467251 0.22880414 -0.12619205 0.30937758 0.25215653 0.034868807 -0.2340365
-0.15150772 0.4294221 0.07471955 0.45663974 0.04119131 -0.06588964 0.029384574 -0.11307148
0.15533537 -0.03283598 0.0816984 0.1129337 -0.081978194 -0.03202831 0.20860308 0.15373647
-0.23818783 0.0061160144 0.090422384 0.22821844 -0.2144823 0.17380592 -0.06988364 -0.09310551
-0.05689286 0.07731513 0.2803602 0.11148809 -0.1484307 0.41814956 -0.2363526 -0.08972141
-0.18669824 -0.22058135 -0.15570852 0.12112488 0.1966595 0.039749116 -0.10996699 -0.2690805
0.2201086 0.037137806 0.11893385 0.1310142 0.15689926 0.18493393 -0.17262408 0.30663696
0.07868584 -0.08130932 -0.13011006 0.048404623 0.052010514 -0.1479236 0.008029613 0.043222968
0.03525097 0.31086975 -0.12265142 -0.015312627 -0.27429876 -0.14362475 -0.02198318 0.11975945
0.10864996 0.13991584 0.06285789 -0.044479974 -0.18672273 -0.14223492 0.032777395 -0.16799772
0.3067585 -0.18196459 0.2184936 -0.113729045 -0.064590134 0.08857541 0.120592386 0.15888901
-0.079225644 0.19781339 0.30180633 -0.16301695 -0.19442299 -0.23444884 -0.0064872275 0.054100636
0.3498054 0.28775138 0.22865625 0.34994552 0.26402447 -0.01026647 -0.15840158 -0.15110251
-0.09951834 -0.06916523 -0.049628247 -0.083876796 0.0023510947 -0.40673736 -0.021320684 0.04850515
0.28373712 -0.15806103 -0.039453674 0.39555022 0.13819546 0.08561552 -0.1025949 0.08078412
0.24747367 0.20173785 0.019295014 0.21938428 0.08977966 -0.0886431 0.17585635 -0.12541415
-0.23230436 -0.010129894 -0.04322 -0.012359473 -0.2758728 -0.035564072 0.19315183 0.1756102
-0.12636144 -0.13718507 -0.12857737 0.09800878 0.24625951 0.01697958 0.12535809 -0.020685155
-0.2600608 0.032628693 0.2150814 -0.07151943 -0.013557265 -0.16977514 0.15065546 0.22118033
0.04696619 -0.07343357 0.17613631 0.026645163 0.23769462 -0.23893636 0.08128848 -0.16252767
0.26029965 -0.22899134 0.13951097 0.10620742 0.067853 -0.1609231 0.10270875 -0.20437218
0.094344094 0.10677107 -0.07214476 -0.19521052 -0.16215505 0.051048614 -0.27742434 -0.026395328
0.1495743 0.22151795 -0.16047715 0.1709619 0.25627387 -0.20156612 0.047798384 -0.35341462
0.10666517 0.09092836 0.037534434 -0.101903275 0.014599058 -0.02174302 -0.121323 0.16274014
0.15318514 -0.14487764 0.003722876 -0.03344603 0.0042462116 -0.06846991 -0.005673872 -0.11427545
0.17098019 -0.351588 -0.10973597 -0.14498702 0.019012924 -0.12923044 0.02279761 -0.14297317
-0.11711846 0.029708961 0.31116715 0.089771755 0.09619692 -0.14802249 0.21812804 -0.12766454
-0.0037315171 0.26390678 -0.011086232 0.27741948 -0.06211985 0.0075227832 0.19322775 -0.07853285

lstm.weight_ih_l1 f4 [320, 80]
00000000: a7ae 81bb 3571 c03d 518d 41bd 38d8 3b3d
00000010: 6273 883e 9bc6 653e fdc3 a13d 81ec 673d
00000020: ffa9 c5bd eebb ec3d 2db1 3c3d 078c 1bbe
00000030: 8c96 84bd 3a55 0cbf 1cea 84be 61bb 39bd
00000040: 5704 ddbd cc34 fc3d 9f5d 4d3c a330 7b3d
00000050: f702 e23d 3dd0 293e 4314 c5bc d16e 21bd
00000060: a266 c4be 8958 0fbe 35b4 b2bb 18e5 41be
00000070: 984a d53d c826 323d 0fba a73c f6c7 3a3e
00000080: c691 243d 6bb3 c83c c46f fcbc 3959 a4be
00000090: 48e9 b13c 4263 2f3e 8609 45bc 7d19 e93c
000000a0: 54f6 2c3d a997 36bd 1e49 303e c533 1cbd
000000b0: c3e5 a6bd 7610 3ebe a4df b43e 2404 73bd
000000c0: 026b 3cbe 628f 60bd 4cab 4fbd fd31 49bd
000000d0: 1f27 d6bc 4432 313d 7f5a b73e 7482 893e
000000e0: 5cb2 e2bd f972 dc3b 0acb b8bd 89cd 06be
000000f0: f913 0ebe 9cda 3cbd f38e 7c3d c6e7 14be
00000100: bcf5 993d 12b0 b4bc 1f15 323d f362 433e
00000110: c314 9bbd da49 18be daec 59be 4f6a 2ebe
00000120: 8c23 1b3e a5ef 62be e5d3 c23d 1f63 f0bd
00000130: 6365 293d 5949 233e 1a0a 733d 3e76 913e
00000140: e7ec 27be d3b5 b2bd 1bb4 aabe fb34 853e
00000150: ef81 b03d 4aee eabd 0a91 bf3c b9c2 ea3d
00000160: bbf2 14be aa47 2bbe e166 00bd d544 b13c
00000170: 01c5 923d 27a3 2c3e 7b7c 993e d4a7 9f3b
00000180: 784b 41be 0ac0 603b 410c e43e 1e7d 203e
00000190: 8e81 4d3d a71c 47be 3a54 263d 886b 4f3d
000001a0: 4d71 08be e517 86be 5aad 133d be79 73bd
000001b0: df0b 013e f028 b43e a105 213e ce78 81bd
000001c0: 7a30 713e 4ebc 323e 1cd7 12bd 02d4 60be
000001d0: ea59 f83c f066 72be 01cf c8bd bc74 1a3e
000001e0: a896 233d 0e84 7d3e 9cbc 3abd b619 e7be
000001f0: e89b f53d f00a c53d 75c8 213e cbf3 8e3e
00000200: f3e2 a13d aa78 99bd 33f6 8d3e ef8b 2bbe
00000210: 7874 edbc 2a9a 8b3d 430f 843e 81d1 70bc
00000220: 1ffe 34bc 0555 3f3e 0cdd 73be b4c5 353d
00000230: f679 1e3c 3abc 2f3e 1b17 a13d 74f1 453e
00000240: 2797 22be 7baf f6bd 1740 4f3e e607 b83d
00000250: 9308 6abc 8c28 86bd 0808 95bd 30b5 2ebe
00000260: fc5e 97bc 54fd 8a3d 6f85 893e 7b8f b8bc
00000270: 0fe3 5b3e 78cf 9ebe 3e6a 4fbd 4508 293d
00000280: dfd9 183e 2414 d33d 8d26 80bd 60db 853c
00000290: 7cde db3d 4167 2a3e c55a f63d e8f2 c0bd
000002a0: 1302 af3d e122 153e 7d3f 5ebd 5a65 9c3d
000002b0: 0bd4 27be 7c6e 963c b41f 663a 908f 903d
000002c0: 572a 84be 9d4b 9bbe 71af e83c 467d 9f3c
000002d0: 08b8 f53d 6cde c7bc f0a3 bdbc f825 343d
000002e0: 5130 dcbd 676b bf3d 047f 3f37 3dc6 09be
000002f0: a42c af3d ef7d 87bd 40a2 fb3d c8e1 383e
00000300: 13ea 0fbd e5fb 2b3a 57d0 82be 5761 363e
00000310: 5200 b53c fac8 903e a727 1f3e 5a25 57be
00000320: 251d dabd b4ac 19be 75fb 1dbd d7f7 dbbc
00000330: 492f 34bd 4ad8 243e 6bae 473d 4889 60be
00000340: f289 143e fec3 69be 8d91 b73d 2acd 503e
00000350: 6c70 b9bd 862f 6dbe a703 883e 3c45 673d
00000360: dcf4 84bd bdc3 4abe 50a9 a5be d601 523d
00000370: 9dd1 56bc 5ec2 0bbe 3e4c 9d3b cb55 97bd
00000380: 2ef3 da3d 6412 b4bd 1823 80bb 2a94 7bbe
00000390: 8ea6 d43d ed94 ff3d 178b 2abe 3c2a b5bd
000003a0: 79ea abbd 788f 0b3c 4317 483e dbcf 4f3e
000003b0: 7a73 6dbd 37b3 8e3d d648 c0bd 37ac dc3d
000003c0: 8772 8a3e 372a 843e 42d4 8abe 157b f2bc
000003d0: d9a2 973d 7b23 19be 5164 82be c20a b9bc
000003e0: 43bb 58bc a548 14be d3d2 dcbd 882b e6bb
000003f0: fcfc 2bbe 613e 253e e990 3d3e 632d 89bb
-0.0039575878 0.093965925 -0.04725391 0.0458605 0.2665053 0.22439043 0.0789871 0.056622032
-0.09651565 0.11559282 0.046067405 -0.15190135 -0.06474027 -0.54817545 -0.2595986 -0.045344714
-0.107918434 0.12314758 0.012534528 0.06132568 0.11035722 0.16583343 -0.024057513 -0.039412323
-0.38359553 -0.13998617 -0.0054536113 -0.18935049 0.10414618 0.043494016 0.020474462 0.18240342
0.040178083 0.024499616 -0.030815013 -0.3209932 0.021717682 0.17127708 -0.012026196 0.028454537
0.042227104 -0.04457823 0.17215392 -0.03813531 -0.08149292 -0.18560967 0.35326874 -0.05933012
-0.18400195 -0.05482424 -0.05070047 -0.04911994 -0.026141701 0.043260828 0.3581123 0.2685734
-0.110691756 0.006727573 -0.09023102 -0.13164343 -0.13874806 -0.04610692 0.061659764 -0.1454154
0.07517573 -0.022056613 0.043477174 0.19080715 -0.07572319 -0.14871922 -0.21281758 -0.17032741
0.15150279 -0.2216173 0.09513072 -0.11737656 0.041356456 0.15945949 0.059335805 0.28410524
-0.16398965 -0.087260865 -0.33340535 0.26016983 0.08618533 -0.11471231 0.02338459 0.11462922
-0.1454572 -0.16726556 -0.031348113 0.021639267 0.07166482 0.16859113 0.29977784 0.0048723016
-0.18876445 0.0034294152 0.445406 0.15672728 0.05017238 -0.19444524 0.04060767 0.05063966
-0.13324471 -0.26190105 0.036053993 -0.059442274 0.12602185 0.35187483 0.15724804 -0.0632187
0.23553649 0.17454645 -0.035849676 -0.21955875 0.030316312 -0.2367208 -0.09805108 0.15083593
0.0399386 0.24757406 -0.04559003 -0.45136803 0.119926274 0.09621227 0.15799125 0.27920374
0.07904615 -0.07493718 0.27726898 -0.16752599 -0.0289862 0.06816514 0.25792894 -0.014698387
-0.011046915 0.18684776 -0.23814791 0.044377998 0.009672632 0.17161646 0.07865735 0.19330388
-0.15877973 -0.12045189 0.20239292 0.089858815 -0.014284271 -0.065507025 -0.072769225 -0.17061305
-0.01847791 0.067866 0.26859614 -0.022529354 0.21473335 -0.3101766 -0.05063843 0.041267652
0.14926861 0.10306576 -0.06257353 0.016339958 0.10735795 0.1664095 0.12029032 -0.09421331
0.085453175 0.14564086 -0.054259766 0.07636519 -0.16389482 0.01836323 0.0008778528 0.070586324
-0.25813553 -0.30331126 0.02840397 0.019468915 0.11997992 -0.024398051 -0.02314946 0.043981522
-0.10751403 0.09346657 1.141406e-05 -0.13454528 0.085534364 -0.06615817 0.12286806 0.18054879
-0.03513534 0.00065606675 -0.25549576 0.1781057 0.02209488 0.28278333 0.1554247 -0.21010342
-0.1065009 -0.15007287 -0.038569886 -0.026851578 -0.043990407 0.16098133 0.048750322 -0.21927369
0.14505747 -0.22828671 0.089633085 0.20390764 -0.09054646 -0.2316266 0.26565287 0.05646251
-0.06492016 -0.1980123 -0.32355738 0.051271282 -0.013111499 -0.13648364 0.0048003485 -0.073894106
0.10690914 -0.0879257 -0.0039104335 -0.24568239 0.1038333 0.12479577 -0.16654621 -0.08845946
-0.083943315 0.008518092 0.19540124 0.20294134 -0.057971455 0.06967776 -0.09388892 0.10775035
0.27040502 0.25813457 -0.27115065 -0.029599706 0.074041076 -0.14954941 -0.2546716 -0.022588138
-0.01322824 -0.14480837 -0.10782399 -0.0070242323 -0.16795725 0.16137077 0.1851231 -0.0041863187

lstm.weight_hh_l1 f4 [320, 80]
00000000: e63b ab3e 574e dcbd 5b64 99bd 93ba 91be
00000010: 41ed 3cbd 95b9 263e f1a1 b7bd 1d24 be3d
00000020: 2b6b 99bd 1f0e 5a3e 4f52 0a3e 716f 863d
00000030: 08ce 083d 6285 b13e 01e4 0bbd c726 413e
00000040: 122f 6c3d 0d87 55be 56c5 f43d a1be 6dbd
00000050: d058 7ebe 5870 14be bfb4 143e 09c0 aa3d
00000060: f4fc 69be 8394 43bd d068 8cbe 0018 88bd
00000070: 71c7 8cbc a371 473d 7427 9c3c aa95 26be
00000080: cc10 6d3d 3309 8ebd bf16 10be 326f 853c
00000090: 9a56 37be 7166 493d a367 41be 49dd eb3d
000000a0: 285b 84bb 2b15 74be dfa1 77be d448 12bd
000000b0: da67 543d c950 10be cd55 903e b6a6 f8bd
000000c0: 5ceb 84bd e1f3 ea3a 0757 073e 76b1 a73c
000000d0: 9d2c 4f3d 4b8b e03e b57f 383d 57ad b63b
000000e0: be5a f5bd 7797 81be f568 0abe df4f f43d
000000f0: 1779 473e ca85 0c3c c97e a83e e720 abbd
00000100: 1843 f73d 0301 a73e 00df 4ebe afd1 0f3c
00000110: 6ebd 923d 0ad0 b43b 2fd0 f93c 07bc 983e
00000120: 598b 48be e37a eabc 28fd c93d 6f15 e23d
00000130: f3c6 363c c15f 73bd bf66 26bd ae27 3abe
00000140: 2915 bc3d d60d 9b3c 2500 0c3e 5f6b dd3d
00000150: eda3 58bd 9c15 cb3d 141f dfbc b9eb 4dbe
00000160: b396 5a3d 2fd0 043e b4a2 1cbd 8190 4e3d
00000170: 4d84 c6bd 0f02 89be 2b98 93be 55ac 993d
00000180: d748 15be 8f10 6dbe c44c 943d 6bdf f7bc
00000190: 8a84 413e 5fbe d23d f758 c2bd 3334 173e
000001a0: 4db9 e43d 32e8 8fbe 8775 6cbc 904c 513e
000001b0: 241c 1dbb 6f2d 92be 5545 2e3e 8c62 93be
000001c0: b8ac 81bd 3356 103e c06c e23c 044e adbc
000001d0: f2e1 b13d 2d3a 40be fd73 23be 2545 9dbd
000001e0: 273a 0cbe 6fc0 893e 7ecf 0b3c 4395 2f3e
000001f0: 91cd 933e 60b9 aabe 6b56 9d3d a862 bb3c
00000200: 39c2 7abd 2aac 083d bc90 3ebd 5760 e8bb
00000210: 1ff3 b63d d0bf be3e 36ad 48bd 3775 e03d
00000220: 3dde 83be f1ca 363e 4759 5d3d 2efa f13d
00000230: c10e 7c3d 902f 7d3e 5490 6cbe 77af 6d3e
00000240: 4142 8d3c ccb7 20be 49df 73bd dc8a 4abe
00000250: 62b8 b33d da81 9dbc 2189 c8bc 5a05 afbd
00000260: 8a11 a4be 7cb6 443e 48b8 e83c abf2 9fbd
00000270: 558f 9fbe e4b0 193b ed75 6f3c 81f6 5b3e
00000280: 09d7 0bbe 9310 403a 0225 133e 3145 133d
00000290: 8467 b13c cdba 1bbe cd0e 033d b189 bb3d
000002a0: 3e15 423e 73b3 603d 1d56 313e 58ef ddbd
000002b0: 3c00 103e 677d e03e f7ce 703e 04ba 84be
000002c0: a885 7cbe 76c0 e0bd 1192 193e 02c9 aebd
000002d0: dfb8 64be dd55 873e c7b4 1dbe fc0d 94be
000002e0: d445 2ebd 037e e53c c8ad f43d eccd 303e
000002f0: 4d4f 853d a2af d2bc 9ed8 b43e 4de8 643e
00000300: ede0 2fbd a378 03bd 5287 38be 4694 563e
00000310: 83c6 1b3e ea04 a93d 1b0f a03d 0069 5f3e
00000320: c2bf 463d 08b0 83bd 9308 4b3c 768f 413e
00000330: 72db 05bd 1061 cdbd f732 9a3d 9eb3 d1bd
00000340: 4b28 f5bd 532e 8d3d 9d5d f9bd be81 0b3f
00000350: 8a41 0f3b baf8 39be a683 563c e5e0 8abd
00000360: e169 b83d d56c 22be f1f8 183d 0290 953b
00000370: b4a5 3cbd b29f 283e 54dc 25be cb8b a13c
00000380: dfb8 9dbe bc0a cb3d f2d3 443d 3a40 e6bd
00000390: 4c81 8d3d 4071 293d 3c5d 17be 6bc5 0f3e
000003a0: 9497 f33d 267f 6a3e a24a 89bd 8ef8 133b
000003b0: ae3b 1f3e 6407 b4bd a38a 8e3d 619e 6cbd
000003c0: 6870 013e 5dc6 f03d 15b1 f83d 9995 703e
000003d0: 4cb8 033d 4a99 3a3e e7f2 f33d 68c4 73be
000003e0: 2635 84bd 7705 453e 79c4 53bd 7d04 f93b
000003f0: 6172 c23e b246 7e3e 59f7 6c3e ed0a 27be
0.33444136 -0.1075713 -0.074898444 -0.28462657 -0.0461247 0.16281731 -0.08966435 0.09284232
-0.07491144 0.2129445 0.1350796 0.065642245 0.03339961 0.34672076 -0.03415299 0.18862449
0.057662077 -0.20852299 0.11951701 -0.058043126 -0.24838567 -0.1449598 0.14522074 0.08337409
-0.228504 -0.047749054 -0.27423716 -0.06645203 -0.017184945 0.048692357 0.019061781 -0.1626803
0.057877347 -0.06935348 -0.14071177 0.016288374 -0.1790413 0.04916996 -0.1888719 0.11516816
-0.004039187 -0.238362 -0.24182843 -0.035713986 0.051856853 -0.14093317 0.2819046 -0.121411726
-0.06490204 0.0017925465 0.13216792 0.020470362 0.050579656 0.43856272 0.045043666 0.005574863
-0.11980198 -0.2531087 -0.135166 0.11929297 0.19479786 0.00857682 0.3290923 -0.08355885
0.12073344 0.3261796 -0.20202255 0.00877802 0.07165037 0.0055179643 0.030494777 0.29830953
-0.19584407 -0.02862305 0.09862739 0.110392444 0.011155832 -0.05941749 -0.04062533 -0.18179199
0.091837235 0.018927496 0.1367193 0.10811495 -0.052890707 0.09916231 -0.027236499 -0.20109452
0.053366374 0.1297004 -0.038241103 0.05043078 -0.09693203 -0.26759383 -0.28827032 0.07503573
-0.14578567 -0.23150848 0.072412044 -0.030257901 0.18898216 0.10290217 -0.09489625 0.14766006
0.11168156 -0.28106838 -0.014432318 0.20439363 -0.0023973072 -0.28550288 0.17018636 -0.28786123
-0.063317716 0.14095382 0.027639747 -0.021155365 0.08685674 -0.18772192 -0.15962215 -0.07679204
-0.13694058 0.26904628 0.008533357 0.17146783 0.28867772 -0.33344555 0.076824985 0.022874191
-0.06122038 0.033367313 -0.04652475 -0.0070915627 0.089330904 0.37255716 -0.04899331 0.10959857
-0.25755492 0.17850854 0.05404022 0.11815296 0.061537508 0.24725175 -0.23101932 0.23211466
0.017243506 -0.15695113 -0.059539113 -0.19779533 0.087754026 -0.019226957 -0.02447945 -0.085459426
-0.3204463 0.19210237 0.028408185 -0.07809957 -0.3116404 0.0023451382 0.014615518 0.21480753
-0.13656248 0.00073266885 0.14369586 0.035954658 0.021655805 -0.15207978 0.031996537 0.09157122
0.18953416 0.054858636 0.17318006 -0.10836667 0.1406259 0.43845674 0.23516451 -0.2592317
-0.24660361 -0.10974209 0.14997126 -0.08534433 -0.22336148 0.26432696 -0.15400992 -0.2891692
-0.042547062 0.028014189 0.11947209 0.17266053 0.06509266 -0.025718514 0.35321516 0.2235424
-0.042939115 -0.03209747 -0.1802037 0.20955 0.15212445 0.082528904 0.07815381 0.21817398
0.04852272 -0.0643006 0.012392181 0.18902382 -0.032679982 -0.10028279 0.07529252 -0.102393374
-0.11970576 0.06893601 -0.121760584 0.54494846 0.0021859133 -0.18161288 0.013092911 -0.067811765
0.0900457 -0.15861829 0.037346784 0.004564286 -0.046056464 0.16467169 -0.1619733 0.019719979
-0.30805108 0.09914157 0.04805369 -0.11242719 0.06909427 0.04136777 -0.1478166 0.14040153
0.118941456 0.22900066 -0.06703688 0.002257857 0.1555011 -0.08790472 0.069600366 -0.05776823
0.12640536 0.11756585 0.12143151 0.23494567 0.03215818 0.18222538 0.11911564 -0.23805392
-0.0645545 0.19240366 -0.051701043 0.007599412 0.3797789 0.24831656 0.2314123 -0.16312762

lstm.bias_ih_l1 f4 [320]
00000000: cb55 ac3d 3fd9 433e fa8a 293d 85a2 a0be
00000010: 80fe 1bbe 4e1e e5bd a366 813d 86f7 203e
00000020: 1757 63be 9fa0 803e 7d6a ea3d 9450 a03e
00000030: ab3d 103e a9a6 c03e 644c 45be f922 043e
00000040: 058a 513d e8df dcbc 7c42 283e 4345 6b3d
00000050: f2ce 1ebd edc0 a53c 03b3 813e 8eba a33d
00000060: 8a32 2f3e f5f9 d0bc 9667 083e d5a6 a33e
00000070: 8512 ab3c 0b63 9e3d ffb7 84be ad2a 133e
00000080: 9b97 a3bd 3843 213e cf43 983e 47d8 1d3e
00000090: acaa ccbe 93f0 303d 4085 20bc 87ef 973b
000000a0: c80b ca3d 8d17 c7bd 80b2 26be 1387 a8bc
000000b0: 934a 053e b234 e83d 4601 503d 6669 49bd
000000c0: 6b98 ebbc 82c6 43bc 7d27 ce3c 9333 eebd
000000d0: 498f 303e f5df 05be e9e8 88bd adcb 8d3d
000000e0: 2abc 04be 696c 973c a10f 95bd 6126 2c3e
000000f0: 5daf e03d b80b 3b3e a78c 30bd f0d8 9ebd
00000100: cd2f 11be 87d5 723c 90d9 fc3d 5e7b 6abd
00000110: 2654 9abb af9a be3b 48f8 edbd 9f48 75be
00000120: a671 b4bc 484f ec3b 3146 10bd 5b9a f03d
00000130: 5d43 71be e53d e3bd 6f42 943e 5fd0 04be
00000140: 7863 263e 8cb7 19be 4811 10be ba9d e03d
00000150: f122 8e3d 049b dd3d 5260 fd3d f9bd 86bd
00000160: 0ce9 3b3e 2b2a 113e 633a 483e 2919 8ebd
00000170: a24a 363e d339 73bd c822 563e 4ae2 d13d
00000180: d2f7 2c3d 1170 853d 5682 d3bc b7fd 693e
00000190: 285a 633d 0a50 0cbd b1b7 c8bd f5a2 02be
000001a0: ce4a ea3d 3fa8 d7bd 1d8b 763c f0f9 723e
000001b0: c0a3 46bd b452 b23d 540d cf3d 44a5 ed3d
000001c0: a412 793d 9e0d 19be f27f 0abd 9845 d93d
000001d0: 24c3 babd 8c85 36bb f95c 4b3d 1602 cf3c
000001e0: dd1e 633e 46d8 91bd 787b 45bd 1754 203e
000001f0: 1045 44be 0d1b 4dbd d0a7 bfbd efad 27be
00000200: fe52 a23d 3abe a2bd 0643 0cbe 2e11 9ebd
00000210: 676f ab3d 3675 8cbd d935 0dbe d91d 633e
00000220: b1ab bebd 0c7b 0d3d 811c c33d cc8f 0a3e
00000230: c470 a0bd d2cb 1abe 3015 803e be8b 743b
00000240: 7002 3fbe fe96 123d db72 34bd d4b0 ce3d
00000250: 10b6 4abe 5247 5bbe a15e 0cbe 8b9a f53d
00000260: 9e2a 953e 3270 03bd 93da 87be beac 4ebd
00000270: 7256 d3bd 7992 3c3d 71b1 f23d 8e5e ef3b
00000280: 9a1c dcbe 30b7 27bd b18a 743d 36f9 923d
00000290: b520 89be 3efc 18bc ee3a 9dbe 8f8e 2b3e
000002a0: cb28 23be 3710 eebe 778c c7bd 721f 44bc
000002b0: d97a 623e 40e9 8c3e 8647 83bc 358e 41bc
000002c0: 1fc0 43bd 7deb 473e ee84 3c3e d2fc 663e
000002d0: 273c 543e 5a6e c13d 8ced 85be 6ed0 483d
000002e0: 8a62 043f c57b 4abe f501 74be 20a4 283e
000002f0: 57d8 02be 1593 bcbd 7cde 44be 2b3f 593d
00000300: 431c 473e b3bf 36be 14db 8f3d bd3f 263d
00000310: c8a1 1ebe 9f86 e13c 2f73 dfbc fc0c 683d
00000320: e101 513e a59a 713c 836e c83d 724d fb3d
00000330: 62cb 8a3d 341f 1b3d 3843 3dbe af25 82bd
00000340: 196c d13c ba2e 833e 0a67 973e 3124 8c3d
00000350: 7d55 843d eca4 a63d 45d9 bf3d a243 193e
00000360: 267e 12be cbc5 333c 59b3 073e 7fd2 3c3c
00000370: 0fa2 5bbe 6a0a 32bd 532d 153e cf43 fcbd
00000380: a395 76bd 436d ba3d 9956 2abe d608 8dbd
00000390: 3757 033e 7f4a b93e cd54 bdba c9be 49bd
000003a0: 34f9 7f3d 217d aa3d 0e6a 813d c5af 3bbd
000003b0: 02ff 673d 7241 bf3d 5a8e bc3d f69a 8e3d
000003c0: 8265 273e cec3 22be 1ffc 88be 8e47 87bd
000003d0: d0ab 55be 77a5 793e 4f51 223c f2e0 e03c
000003e0: b48a 523d bd67 373d 3cf4 91bd b034 41bc
000003f0: c015 023e 5a12 de3d 01ca a4bd 3b92 4b3d
0.08414801 0.19125842 0.041392304 -0.31373993 -0.15233803 -0.11187421 0.063184045 0.15719423
-0.22201191 0.25122544 0.11446092 0.31311476 0.14086024 0.37627152 -0.19267422 0.12903966
0.051157016 -0.026962236 0.16431612 0.0574391 -0.038771577 0.020233596 0.25331888 0.07994567
0.17109123 -0.025509814 0.13320765 0.3196322 0.020882854 0.07733735 -0.25921628 0.14371748
-0.07987901 0.15748298 0.29739234 0.15414535 -0.39973962 0.04319818 -0.009797394 0.004636708
0.09865528 -0.09721289 -0.1627903 -0.02057222 0.13016729 0.11338176 0.050782464 -0.04917278
-0.028759202 -0.011949183 0.025165314 -0.11630931 0.17242159 -0.13073714 -0.06685049 0.06923614
-0.12962404 0.018484311 -0.072783716 0.16811515 0.10970948 0.18266189 -0.043102887 -0.07756221
-0.14178391 0.014821417 0.12346184 -0.05724656 -0.0047097383 0.0058167796 -0.116196215 -0.23953484
-0.022026848 0.0072115995 -0.03522319 0.11748191 -0.23560853 -0.1109579 0.28956935 -0.12970112
0.16248882 -0.15011424 -0.14069092 0.10967584 0.06940258 0.108205825 0.12371887 -0.06579203
0.18350619 0.14176242 0.19553523 -0.06938393 0.17801908 -0.059381317 0.20911705 0.10248239
0.042228527 0.065155156 -0.025818985 0.22850691 0.0555059 -0.03425602 -0.09800661 -0.12757476
0.11440049 -0.10530137 0.015047816 0.23728156 -0.048496008 0.087071806 0.10109964 0.116037875
0.060808793 -0.14946601 -0.033813424 0.10608977 -0.09119251 -0.0027850596 0.049649213 0.02526955
0.22179742 -0.07121329 -0.048213452 0.15657078 -0.1916697 -0.050074626 -0.093581796 -0.16374944
0.07925986 -0.07946439 -0.13697442 -0.077181205 0.08370858 -0.06858294 -0.13790073 0.22179355
-0.09310091 0.034541175 0.09526921 0.13531417 -0.07834008 -0.15116814 0.25016165 0.0037314738
-0.18653274 0.03578853 -0.044054847 0.10092321 -0.19796014 -0.21413925 -0.13707973 0.11992367
0.29134077 -0.03208942 -0.26533946 -0.05045771 -0.103192225 0.046038125 0.118502505 0.007304973
-0.4299057 -0.040946186 0.05970258 0.071764395 -0.26782766 -0.009337483 -0.30709022 0.167536
-0.1593353 -0.46496746 -0.097435884 -0.011970388 0.22117175 0.27521706 -0.016025316 -0.01181369
-0.047790643 0.19523425 0.18410084 0.22557381 0.20726071 0.09444876 -0.26157796 0.0490269
0.5171286 -0.19773777 -0.23828872 0.16468859 -0.1277784 -0.09207741 -0.19225496 0.053038757
0.19444375 -0.17846565 0.07024208 0.04058813 -0.15491402 0.027530013 -0.027276604 0.056653008
0.20410873 0.014746343 0.097867034 0.12270631 0.067770734 0.037871554 -0.18482673 -0.06354844
0.02556424 0.25621587 0.295708 0.068428405 0.06461618 0.08136925 0.09367613 0.14967206
-0.14305934 0.0109724505 0.1325201 0.011524796 -0.21448539 -0.043466963 0.14568071 -0.12317621
-0.0602013 0.09102871 -0.16634597 -0.06886451 0.12826239 0.36189649 -0.0014444828 -0.049254213
0.062493518 0.08324648 0.063190565 -0.045821924 0.05663968 0.093386546 0.09206839 0.0696315
0.16347316 -0.15895006 -0.26754853 -0.06605445 -0.20866323 0.24379526 0.009907081 0.027451012
0.05140181 0.044776667 -0.07126662 -0.011792347 0.1270361 0.10843344 -0.08046342 0.049700003

lstm.bias_hh_l1 f4 [320]
00000000: 87d2 d53d 113f f8bd a91e 4fbe 467a 7dbd
00000010: f32d 733e 9250 833e e53d db3c f346 a3be
00000020: 37d6 ba3e 75c5 b5bd 6ed6 93be c4f4 52be
00000030: a089 d53d 381c 7d3d f42c 003d a8c0 b03c
00000040: e613 593c 553a b33e 8564 e9bc a071 3b3e
00000050: 11a2 c0be 0143 57be fcb4 e93c 8358 eabd
00000060: 254e cebc 9ddd 043e a71a 9ebd da74 20be
00000070: bc00 4c3d 68d7 3ebd ecf8 eebe 8fd2 82be
00000080: 6c55 313c 549d bd3c b13c a4be 9575 10be
00000090: f4a0 273e 705f ea3d 8849 af3d 77b1 1dbe
000000a0: 8bbe 253e 2699 923e 449b b53d e055 9cbe
000000b0: 0756 623e 310c 243d 69cd 103c 0f5e c4bd
000000c0: 2bb1 17ba f4a6 3bbd c950 8ebe a926 53bd
000000d0: b7e4 ddbc 5991 84bd c2aa 01be 9c64 9f3d
000000e0: 71d3 15be a3f1 83bd 0987 cd3d ed82 4b3d
000000f0: f778 e2bc 02f6 123e 82df 6b3e 80fb f33d
00000100: 5bda 77bd 2fd5 8bbe bb29 283d c10a 1e3d
00000110: 31ec 183e 8f30 fdbd 2c43 1fbd 0c45 cabd
00000120: c74f 08bc 613b d93d 19c3 773c 8493 81be
00000130: 183d cd3d 2bd8 e43d 7055 373e 1a56 993d
00000140: 247c 933d ead9 023d b886 15be b924 1dbe
00000150: c4b7 6dbe ae82 b43c ca75 f03c 657e 61be
00000160: e879 4cbe 1fa1 39be 2833 22bc 015f d2bd
00000170: 45ce 05bf 2732 b33d c156 073d fc8c 49bd
00000180: 6b43 473d dc11 773c 3ca0 afbe e02b ca3d
00000190: bfb9 79be 53a7 40be b847 c8bd 30b5 b33d
000001a0: dcbe 013e 8c11 52be f576 2d3e 801a 93be
000001b0: 0c79 cc3c d482 46be 7514 0ebe f425 d5be
000001c0: 755a 933e b23a 9a3e 9ea8 8dbd d352 95bc
000001d0: 6e5d 90bc bdeb 743d 24f0 1b3e 1883 523e
000001e0: b06d 90bc b7b2 b43d 01ea 673e 808b a8bd
000001f0: b0ce 79be d24f 5e3e 7a9c 2a3c 670b 6a3d
00000200: a870 63be 8ae8 4abe 0e07 22be 9ea7 ad3d
00000210: 9162 16bc f21b b93a 52f7 af3d 754a 793e
00000220: fc34 553a 1343 6abe 9b49 85bd 3e81 743d
00000230: c500 51be aadd e0bd 26f8 fa3d accc 0c3e
00000240: a327 cfbc 6191 46bc bed8 b3bd 3ae5 1bbe
00000250: 1ed8 c8be c16b aa3d 7cd5 3f3e 0e2b a13e
00000260: daa6 1dbd 710d f73c af44 cb3d e367 6abe
00000270: df02 e0bb 91f2 bcbd 23e7 00be 27f5 613d
00000280: 54f6 293e 53a6 253d 45ba 21be f3ce 2dbd
00000290: 1ab0 0ebd 708e f4bc 4028 883d 25d8 38be
000002a0: dcf2 923c b991 523e d6f4 d8bd 7156 973c
000002b0: 5788 73bd a580 3fbd 04c4 31bd 6033 2ebe
000002c0: 26be 6ebd d524 eebd 6489 683e 8055 ef3d
000002d0: aa1b cf3d 49a2 63bc e541 15bc 7990 103e
000002e0: 7f8f 813e e6b3 ff3a 8cd6 bd3d 519e 9a3e
000002f0: 6b12 a0bd 7102 7bbe 18fc 793e c62d fc3d
00000300: 6cda 963e 28bc dc3d 7c07 dd3c 54a8 abbe
00000310: ea11 f4bc 0033 b4bd 1a04 453e f7a2 e3bd
00000320: 7580 c03d 57ae fabd d0f3 563e af93 23be
00000330: 5e2c b7bd 98c5 ac3c 2d09 c9bd fc87 7dbd
00000340: 5613 d5bd 4cc7 b2bd f6f0 213d ef64 843b
00000350: 5d58 50be a808 e7bd c9e6 973e c549 cabe
00000360: 79df fbbd 1c99 e6bd 5e36 973e 6ad1 c4bd
00000370: ea65 48bb 35e4 b4bc 1ca0 ac3d 2470 85be
00000380: 0202 bcbd 6f52 04be 805a aebd 5a5d 7bbd
00000390: cded 50be fbe3 273e 30bd 043e b7c4 a43c
000003a0: ae24 16be 631f 153e 0d4d 953e abea 4c3e
000003b0: 3125 b93e 65aa 513e 0ada cfbd ef98 523e
000003c0: c979 42bd 22f0 4abe 870f efbd 8909 b1be
000003d0: c7bf 23bd e11e b63d 8eba 203e 2a85 89be
000003e0: 349c d93d 56fa 243e 1292 a4bc a85c 233e
000003f0: 7f58 75be 8dd6 9abc 631a 67bd 3d5a 3fbe
0.104405455 -0.12121404 -0.2022654 -0.061884187 0.23747997 0.25647408 0.026762912 -0.31890067
0.36491558 -0.088755526 -0.28874534 -0.20601183 0.104266405 0.06179449 0.03129287 0.02157624
0.013249373 0.3500544 -0.028490314 0.18305063 -0.37623647 -0.21021654 0.028528683 -0.114426635
-0.025183747 0.12975164 -0.07719927 -0.15669575 0.049805388 -0.046592146 -0.46674287 -0.25551268
0.010823589 0.023146309 -0.32077554 -0.14107354 0.16369992 0.114439845 0.08558947 -0.15399729
0.16185968 0.28632468 0.08867505 -0.30534267 0.2210313 0.04005069 0.008838036 -0.09588253
-0.0005786593 -0.045813516 -0.2779601 -0.05155054 -0.027086599 -0.06473035 -0.12662795 0.077828616
-0.1463144 -0.06442573 0.100355215 0.049685407 -0.027645571 0.14351657 0.2303448 0.11913204
-0.060510974 -0.27311084 0.041055422 0.038584474 0.1493385 -0.123627774 -0.03888242 -0.09876451
-0.008319802 0.10607029 0.0151221985 -0.25307858 0.10021418 0.11174043 0.17903686 0.07487126
0.07201412 0.0319461 -0.14602172 -0.1534604 -0.23214632 0.02203497 0.029353041 -0.22020872
-0.19968379 -0.18127869 -0.009899892 -0.10272027 -0.5226787 0.087498 0.03304172 -0.04920672
0.04864828 0.015079942 -0.34301937 0.0987165 -0.24387263 -0.18813829 -0.09779304 0.08774793
0.12670463 -0.20514506 0.1693991 -0.28731155 0.024960063 -0.19385844 -0.13874991 -0.41630518
0.2877995 0.30122906 -0.06916927 -0.01822797 -0.017622676 0.05979513 0.15228325 0.20557821
-0.017630428 0.0882315 0.22647859 -0.082297325 -0.24395251 0.21710137 0.0104132835 0.05713978
-0.22210944 -0.19815269 -0.15823004 0.08479236 -0.0091787735 0.0014122708 0.085920945 0.2434481
0.00081332005 -0.2287715 -0.0650818 0.059693567 -0.2041045 -0.10979779 0.12254362 0.13749951
-0.025287455 -0.012119622 -0.08781575 -0.15224162 -0.39227384 0.08321334 0.18733782 0.3147816
-0.0384892 0.030157777 0.0992521 -0.22891192 -0.0068362798 -0.09225953 -0.12588172 0.055165436
0.16597873 0.040441822 -0.15793712 -0.04243369 -0.034835912 -0.029853076 0.06648302 -0.18051203
0.01793807 0.20563401 -0.10593574 0.018473836 -0.059456196 -0.046753544 -0.043399826 -0.17011786
-0.05828681 -0.11628119 0.2270866 0.1168623 0.101126984 -0.013893672 -0.009109949 0.14117612
0.2530479 0.001950857 0.09269437 0.3019891 -0.07816013 -0.2451265 0.24412572 0.12313418
0.29463518 0.107780755 0.026981108 -0.33526862 -0.029793698 -0.0879879 0.19239846 -0.111150675
0.09399501 -0.12240284 0.20991445 -0.15974306 -0.08944009 0.021090314 -0.09816203 -0.061897263
-0.10404079 -0.08729419 0.03953644 0.0040403525 -0.20346208 -0.11280948 0.29668263 -0.39509407
-0.122984834 -0.11259672 0.29533666 -0.09610255 -0.0030578324 -0.022081474 0.08428976 -0.2606212
-0.091800705 -0.12922071 -0.08513355 -0.061368324 -0.20403214 0.16395561 0.12962794 0.020113332
-0.1466243 0.14562754 0.29160348 0.20011394 0.36161187 0.20475157 -0.101490095 0.20566152
-0.047479425 -0.19818166 -0.116728835 -0.34577587 -0.039977815 0.088926084 0.15696165 -0.2685941
0.106254965 0.1611112 -0.020089183 0.15953314 -0.2395954 -0.018901134 -0.05642165 -0.18686767
